program(1.0)
[buildInfo = dict<tensor<string, []>, tensor<string, []>>({{"coremlc-component-MIL", "3520.4.1"}, {"coremlc-version", "3520.5.1"}, {"coremltools-component-torch", "2.12.1"}, {"coremltools-source-dialect", "TorchScript"}, {"coremltools-version", "9.0"}})]
{
    func main<ios17>(tensor<fp32, [1, 3, 256, 256]> image) {
            tensor<fp32, []> image__scaled___y_0 = const()[name = tensor<string, []>("image__scaled___y_0"), val = tensor<fp32, []>(0x1.010102p-8)];
            tensor<fp32, [1, 3, 256, 256]> image__scaled__ = mul(x = image, y = image__scaled___y_0)[name = tensor<string, []>("image__scaled__")];
            tensor<string, []> input_1_pad_type_0 = const()[name = tensor<string, []>("input_1_pad_type_0"), val = tensor<string, []>("custom")];
            tensor<int32, [4]> input_1_pad_0 = const()[name = tensor<string, []>("input_1_pad_0"), val = tensor<int32, [4]>([1, 1, 1, 1])];
            tensor<int32, [2]> input_1_strides_0 = const()[name = tensor<string, []>("input_1_strides_0"), val = tensor<int32, [2]>([1, 1])];
            tensor<int32, [2]> input_1_dilations_0 = const()[name = tensor<string, []>("input_1_dilations_0"), val = tensor<int32, [2]>([1, 1])];
            tensor<int32, []> input_1_groups_0 = const()[name = tensor<string, []>("input_1_groups_0"), val = tensor<int32, []>(1)];
            tensor<string, []> image_to_fp16_dtype_0 = const()[name = tensor<string, []>("image_to_fp16_dtype_0"), val = tensor<string, []>("fp16")];
            tensor<fp16, [64, 3, 3, 3]> body_0_weight_to_fp16 = const()[name = tensor<string, []>("body_0_weight_to_fp16"), val = tensor<fp16, [64, 3, 3, 3]>(BLOBFILE(path = tensor<string, []>("@model_path/weights/weight.bin"), offset = tensor<uint64, []>(64)))];
            tensor<fp16, [64]> body_0_bias_to_fp16 = const()[name = tensor<string, []>("body_0_bias_to_fp16"), val = tensor<fp16, [64]>(BLOBFILE(path = tensor<string, []>("@model_path/weights/weight.bin"), offset = tensor<uint64, []>(3584)))];
            tensor<fp16, [1, 3, 256, 256]> image_to_fp16 = cast(dtype = image_to_fp16_dtype_0, x = image__scaled__)[name = tensor<string, []>("cast_1")];
            tensor<fp16, [1, 64, 256, 256]> input_1_cast_fp16 = conv(bias = body_0_bias_to_fp16, dilations = input_1_dilations_0, groups = input_1_groups_0, pad = input_1_pad_0, pad_type = input_1_pad_type_0, strides = input_1_strides_0, weight = body_0_weight_to_fp16, x = image_to_fp16)[name = tensor<string, []>("input_1_cast_fp16")];
            tensor<fp32, [64]> input_3_alpha_0 = const()[name = tensor<string, []>("input_3_alpha_0"), val = tensor<fp32, [64]>(BLOBFILE(path = tensor<string, []>("@model_path/weights/weight.bin"), offset = tensor<uint64, []>(3776)))];
            tensor<fp16, [1, 64, 256, 256]> input_3_cast_fp16 = prelu(alpha = input_3_alpha_0, x = input_1_cast_fp16)[name = tensor<string, []>("input_3_cast_fp16")];
            tensor<string, []> input_5_pad_type_0 = const()[name = tensor<string, []>("input_5_pad_type_0"), val = tensor<string, []>("custom")];
            tensor<int32, [4]> input_5_pad_0 = const()[name = tensor<string, []>("input_5_pad_0"), val = tensor<int32, [4]>([1, 1, 1, 1])];
            tensor<int32, [2]> input_5_strides_0 = const()[name = tensor<string, []>("input_5_strides_0"), val = tensor<int32, [2]>([1, 1])];
            tensor<int32, [2]> input_5_dilations_0 = const()[name = tensor<string, []>("input_5_dilations_0"), val = tensor<int32, [2]>([1, 1])];
            tensor<int32, []> input_5_groups_0 = const()[name = tensor<string, []>("input_5_groups_0"), val = tensor<int32, []>(1)];
            tensor<fp16, [64, 64, 3, 3]> body_2_weight_to_fp16 = const()[name = tensor<string, []>("body_2_weight_to_fp16"), val = tensor<fp16, [64, 64, 3, 3]>(BLOBFILE(path = tensor<string, []>("@model_path/weights/weight.bin"), offset = tensor<uint64, []>(4096)))];
            tensor<fp16, [64]> body_2_bias_to_fp16 = const()[name = tensor<string, []>("body_2_bias_to_fp16"), val = tensor<fp16, [64]>(BLOBFILE(path = tensor<string, []>("@model_path/weights/weight.bin"), offset = tensor<uint64, []>(77888)))];
            tensor<fp16, [1, 64, 256, 256]> input_5_cast_fp16 = conv(bias = body_2_bias_to_fp16, dilations = input_5_dilations_0, groups = input_5_groups_0, pad = input_5_pad_0, pad_type = input_5_pad_type_0, strides = input_5_strides_0, weight = body_2_weight_to_fp16, x = input_3_cast_fp16)[name = tensor<string, []>("input_5_cast_fp16")];
            tensor<fp32, [64]> input_7_alpha_0 = const()[name = tensor<string, []>("input_7_alpha_0"), val = tensor<fp32, [64]>(BLOBFILE(path = tensor<string, []>("@model_path/weights/weight.bin"), offset = tensor<uint64, []>(78080)))];
            tensor<fp16, [1, 64, 256, 256]> input_7_cast_fp16 = prelu(alpha = input_7_alpha_0, x = input_5_cast_fp16)[name = tensor<string, []>("input_7_cast_fp16")];
            tensor<string, []> input_9_pad_type_0 = const()[name = tensor<string, []>("input_9_pad_type_0"), val = tensor<string, []>("custom")];
            tensor<int32, [4]> input_9_pad_0 = const()[name = tensor<string, []>("input_9_pad_0"), val = tensor<int32, [4]>([1, 1, 1, 1])];
            tensor<int32, [2]> input_9_strides_0 = const()[name = tensor<string, []>("input_9_strides_0"), val = tensor<int32, [2]>([1, 1])];
            tensor<int32, [2]> input_9_dilations_0 = const()[name = tensor<string, []>("input_9_dilations_0"), val = tensor<int32, [2]>([1, 1])];
            tensor<int32, []> input_9_groups_0 = const()[name = tensor<string, []>("input_9_groups_0"), val = tensor<int32, []>(1)];
            tensor<fp16, [64, 64, 3, 3]> body_4_weight_to_fp16 = const()[name = tensor<string, []>("body_4_weight_to_fp16"), val = tensor<fp16, [64, 64, 3, 3]>(BLOBFILE(path = tensor<string, []>("@model_path/weights/weight.bin"), offset = tensor<uint64, []>(78400)))];
            tensor<fp16, [64]> body_4_bias_to_fp16 = const()[name = tensor<string, []>("body_4_bias_to_fp16"), val = tensor<fp16, [64]>(BLOBFILE(path = tensor<string, []>("@model_path/weights/weight.bin"), offset = tensor<uint64, []>(152192)))];
            tensor<fp16, [1, 64, 256, 256]> input_9_cast_fp16 = conv(bias = body_4_bias_to_fp16, dilations = input_9_dilations_0, groups = input_9_groups_0, pad = input_9_pad_0, pad_type = input_9_pad_type_0, strides = input_9_strides_0, weight = body_4_weight_to_fp16, x = input_7_cast_fp16)[name = tensor<string, []>("input_9_cast_fp16")];
            tensor<fp32, [64]> input_11_alpha_0 = const()[name = tensor<string, []>("input_11_alpha_0"), val = tensor<fp32, [64]>(BLOBFILE(path = tensor<string, []>("@model_path/weights/weight.bin"), offset = tensor<uint64, []>(152384)))];
            tensor<fp16, [1, 64, 256, 256]> input_11_cast_fp16 = prelu(alpha = input_11_alpha_0, x = input_9_cast_fp16)[name = tensor<string, []>("input_11_cast_fp16")];
            tensor<string, []> input_13_pad_type_0 = const()[name = tensor<string, []>("input_13_pad_type_0"), val = tensor<string, []>("custom")];
            tensor<int32, [4]> input_13_pad_0 = const()[name = tensor<string, []>("input_13_pad_0"), val = tensor<int32, [4]>([1, 1, 1, 1])];
            tensor<int32, [2]> input_13_strides_0 = const()[name = tensor<string, []>("input_13_strides_0"), val = tensor<int32, [2]>([1, 1])];
            tensor<int32, [2]> input_13_dilations_0 = const()[name = tensor<string, []>("input_13_dilations_0"), val = tensor<int32, [2]>([1, 1])];
            tensor<int32, []> input_13_groups_0 = const()[name = tensor<string, []>("input_13_groups_0"), val = tensor<int32, []>(1)];
            tensor<fp16, [64, 64, 3, 3]> body_6_weight_to_fp16 = const()[name = tensor<string, []>("body_6_weight_to_fp16"), val = tensor<fp16, [64, 64, 3, 3]>(BLOBFILE(path = tensor<string, []>("@model_path/weights/weight.bin"), offset = tensor<uint64, []>(152704)))];
            tensor<fp16, [64]> body_6_bias_to_fp16 = const()[name = tensor<string, []>("body_6_bias_to_fp16"), val = tensor<fp16, [64]>(BLOBFILE(path = tensor<string, []>("@model_path/weights/weight.bin"), offset = tensor<uint64, []>(226496)))];
            tensor<fp16, [1, 64, 256, 256]> input_13_cast_fp16 = conv(bias = body_6_bias_to_fp16, dilations = input_13_dilations_0, groups = input_13_groups_0, pad = input_13_pad_0, pad_type = input_13_pad_type_0, strides = input_13_strides_0, weight = body_6_weight_to_fp16, x = input_11_cast_fp16)[name = tensor<string, []>("input_13_cast_fp16")];
            tensor<fp32, [64]> input_15_alpha_0 = const()[name = tensor<string, []>("input_15_alpha_0"), val = tensor<fp32, [64]>(BLOBFILE(path = tensor<string, []>("@model_path/weights/weight.bin"), offset = tensor<uint64, []>(226688)))];
            tensor<fp16, [1, 64, 256, 256]> input_15_cast_fp16 = prelu(alpha = input_15_alpha_0, x = input_13_cast_fp16)[name = tensor<string, []>("input_15_cast_fp16")];
            tensor<string, []> input_17_pad_type_0 = const()[name = tensor<string, []>("input_17_pad_type_0"), val = tensor<string, []>("custom")];
            tensor<int32, [4]> input_17_pad_0 = const()[name = tensor<string, []>("input_17_pad_0"), val = tensor<int32, [4]>([1, 1, 1, 1])];
            tensor<int32, [2]> input_17_strides_0 = const()[name = tensor<string, []>("input_17_strides_0"), val = tensor<int32, [2]>([1, 1])];
            tensor<int32, [2]> input_17_dilations_0 = const()[name = tensor<string, []>("input_17_dilations_0"), val = tensor<int32, [2]>([1, 1])];
            tensor<int32, []> input_17_groups_0 = const()[name = tensor<string, []>("input_17_groups_0"), val = tensor<int32, []>(1)];
            tensor<fp16, [64, 64, 3, 3]> body_8_weight_to_fp16 = const()[name = tensor<string, []>("body_8_weight_to_fp16"), val = tensor<fp16, [64, 64, 3, 3]>(BLOBFILE(path = tensor<string, []>("@model_path/weights/weight.bin"), offset = tensor<uint64, []>(227008)))];
            tensor<fp16, [64]> body_8_bias_to_fp16 = const()[name = tensor<string, []>("body_8_bias_to_fp16"), val = tensor<fp16, [64]>(BLOBFILE(path = tensor<string, []>("@model_path/weights/weight.bin"), offset = tensor<uint64, []>(300800)))];
            tensor<fp16, [1, 64, 256, 256]> input_17_cast_fp16 = conv(bias = body_8_bias_to_fp16, dilations = input_17_dilations_0, groups = input_17_groups_0, pad = input_17_pad_0, pad_type = input_17_pad_type_0, strides = input_17_strides_0, weight = body_8_weight_to_fp16, x = input_15_cast_fp16)[name = tensor<string, []>("input_17_cast_fp16")];
            tensor<fp32, [64]> input_19_alpha_0 = const()[name = tensor<string, []>("input_19_alpha_0"), val = tensor<fp32, [64]>(BLOBFILE(path = tensor<string, []>("@model_path/weights/weight.bin"), offset = tensor<uint64, []>(300992)))];
            tensor<fp16, [1, 64, 256, 256]> input_19_cast_fp16 = prelu(alpha = input_19_alpha_0, x = input_17_cast_fp16)[name = tensor<string, []>("input_19_cast_fp16")];
            tensor<string, []> input_21_pad_type_0 = const()[name = tensor<string, []>("input_21_pad_type_0"), val = tensor<string, []>("custom")];
            tensor<int32, [4]> input_21_pad_0 = const()[name = tensor<string, []>("input_21_pad_0"), val = tensor<int32, [4]>([1, 1, 1, 1])];
            tensor<int32, [2]> input_21_strides_0 = const()[name = tensor<string, []>("input_21_strides_0"), val = tensor<int32, [2]>([1, 1])];
            tensor<int32, [2]> input_21_dilations_0 = const()[name = tensor<string, []>("input_21_dilations_0"), val = tensor<int32, [2]>([1, 1])];
            tensor<int32, []> input_21_groups_0 = const()[name = tensor<string, []>("input_21_groups_0"), val = tensor<int32, []>(1)];
            tensor<fp16, [64, 64, 3, 3]> body_10_weight_to_fp16 = const()[name = tensor<string, []>("body_10_weight_to_fp16"), val = tensor<fp16, [64, 64, 3, 3]>(BLOBFILE(path = tensor<string, []>("@model_path/weights/weight.bin"), offset = tensor<uint64, []>(301312)))];
            tensor<fp16, [64]> body_10_bias_to_fp16 = const()[name = tensor<string, []>("body_10_bias_to_fp16"), val = tensor<fp16, [64]>(BLOBFILE(path = tensor<string, []>("@model_path/weights/weight.bin"), offset = tensor<uint64, []>(375104)))];
            tensor<fp16, [1, 64, 256, 256]> input_21_cast_fp16 = conv(bias = body_10_bias_to_fp16, dilations = input_21_dilations_0, groups = input_21_groups_0, pad = input_21_pad_0, pad_type = input_21_pad_type_0, strides = input_21_strides_0, weight = body_10_weight_to_fp16, x = input_19_cast_fp16)[name = tensor<string, []>("input_21_cast_fp16")];
            tensor<fp32, [64]> input_23_alpha_0 = const()[name = tensor<string, []>("input_23_alpha_0"), val = tensor<fp32, [64]>(BLOBFILE(path = tensor<string, []>("@model_path/weights/weight.bin"), offset = tensor<uint64, []>(375296)))];
            tensor<fp16, [1, 64, 256, 256]> input_23_cast_fp16 = prelu(alpha = input_23_alpha_0, x = input_21_cast_fp16)[name = tensor<string, []>("input_23_cast_fp16")];
            tensor<string, []> input_25_pad_type_0 = const()[name = tensor<string, []>("input_25_pad_type_0"), val = tensor<string, []>("custom")];
            tensor<int32, [4]> input_25_pad_0 = const()[name = tensor<string, []>("input_25_pad_0"), val = tensor<int32, [4]>([1, 1, 1, 1])];
            tensor<int32, [2]> input_25_strides_0 = const()[name = tensor<string, []>("input_25_strides_0"), val = tensor<int32, [2]>([1, 1])];
            tensor<int32, [2]> input_25_dilations_0 = const()[name = tensor<string, []>("input_25_dilations_0"), val = tensor<int32, [2]>([1, 1])];
            tensor<int32, []> input_25_groups_0 = const()[name = tensor<string, []>("input_25_groups_0"), val = tensor<int32, []>(1)];
            tensor<fp16, [64, 64, 3, 3]> body_12_weight_to_fp16 = const()[name = tensor<string, []>("body_12_weight_to_fp16"), val = tensor<fp16, [64, 64, 3, 3]>(BLOBFILE(path = tensor<string, []>("@model_path/weights/weight.bin"), offset = tensor<uint64, []>(375616)))];
            tensor<fp16, [64]> body_12_bias_to_fp16 = const()[name = tensor<string, []>("body_12_bias_to_fp16"), val = tensor<fp16, [64]>(BLOBFILE(path = tensor<string, []>("@model_path/weights/weight.bin"), offset = tensor<uint64, []>(449408)))];
            tensor<fp16, [1, 64, 256, 256]> input_25_cast_fp16 = conv(bias = body_12_bias_to_fp16, dilations = input_25_dilations_0, groups = input_25_groups_0, pad = input_25_pad_0, pad_type = input_25_pad_type_0, strides = input_25_strides_0, weight = body_12_weight_to_fp16, x = input_23_cast_fp16)[name = tensor<string, []>("input_25_cast_fp16")];
            tensor<fp32, [64]> input_27_alpha_0 = const()[name = tensor<string, []>("input_27_alpha_0"), val = tensor<fp32, [64]>(BLOBFILE(path = tensor<string, []>("@model_path/weights/weight.bin"), offset = tensor<uint64, []>(449600)))];
            tensor<fp16, [1, 64, 256, 256]> input_27_cast_fp16 = prelu(alpha = input_27_alpha_0, x = input_25_cast_fp16)[name = tensor<string, []>("input_27_cast_fp16")];
            tensor<string, []> input_29_pad_type_0 = const()[name = tensor<string, []>("input_29_pad_type_0"), val = tensor<string, []>("custom")];
            tensor<int32, [4]> input_29_pad_0 = const()[name = tensor<string, []>("input_29_pad_0"), val = tensor<int32, [4]>([1, 1, 1, 1])];
            tensor<int32, [2]> input_29_strides_0 = const()[name = tensor<string, []>("input_29_strides_0"), val = tensor<int32, [2]>([1, 1])];
            tensor<int32, [2]> input_29_dilations_0 = const()[name = tensor<string, []>("input_29_dilations_0"), val = tensor<int32, [2]>([1, 1])];
            tensor<int32, []> input_29_groups_0 = const()[name = tensor<string, []>("input_29_groups_0"), val = tensor<int32, []>(1)];
            tensor<fp16, [64, 64, 3, 3]> body_14_weight_to_fp16 = const()[name = tensor<string, []>("body_14_weight_to_fp16"), val = tensor<fp16, [64, 64, 3, 3]>(BLOBFILE(path = tensor<string, []>("@model_path/weights/weight.bin"), offset = tensor<uint64, []>(449920)))];
            tensor<fp16, [64]> body_14_bias_to_fp16 = const()[name = tensor<string, []>("body_14_bias_to_fp16"), val = tensor<fp16, [64]>(BLOBFILE(path = tensor<string, []>("@model_path/weights/weight.bin"), offset = tensor<uint64, []>(523712)))];
            tensor<fp16, [1, 64, 256, 256]> input_29_cast_fp16 = conv(bias = body_14_bias_to_fp16, dilations = input_29_dilations_0, groups = input_29_groups_0, pad = input_29_pad_0, pad_type = input_29_pad_type_0, strides = input_29_strides_0, weight = body_14_weight_to_fp16, x = input_27_cast_fp16)[name = tensor<string, []>("input_29_cast_fp16")];
            tensor<fp32, [64]> input_31_alpha_0 = const()[name = tensor<string, []>("input_31_alpha_0"), val = tensor<fp32, [64]>(BLOBFILE(path = tensor<string, []>("@model_path/weights/weight.bin"), offset = tensor<uint64, []>(523904)))];
            tensor<fp16, [1, 64, 256, 256]> input_31_cast_fp16 = prelu(alpha = input_31_alpha_0, x = input_29_cast_fp16)[name = tensor<string, []>("input_31_cast_fp16")];
            tensor<string, []> input_33_pad_type_0 = const()[name = tensor<string, []>("input_33_pad_type_0"), val = tensor<string, []>("custom")];
            tensor<int32, [4]> input_33_pad_0 = const()[name = tensor<string, []>("input_33_pad_0"), val = tensor<int32, [4]>([1, 1, 1, 1])];
            tensor<int32, [2]> input_33_strides_0 = const()[name = tensor<string, []>("input_33_strides_0"), val = tensor<int32, [2]>([1, 1])];
            tensor<int32, [2]> input_33_dilations_0 = const()[name = tensor<string, []>("input_33_dilations_0"), val = tensor<int32, [2]>([1, 1])];
            tensor<int32, []> input_33_groups_0 = const()[name = tensor<string, []>("input_33_groups_0"), val = tensor<int32, []>(1)];
            tensor<fp16, [64, 64, 3, 3]> body_16_weight_to_fp16 = const()[name = tensor<string, []>("body_16_weight_to_fp16"), val = tensor<fp16, [64, 64, 3, 3]>(BLOBFILE(path = tensor<string, []>("@model_path/weights/weight.bin"), offset = tensor<uint64, []>(524224)))];
            tensor<fp16, [64]> body_16_bias_to_fp16 = const()[name = tensor<string, []>("body_16_bias_to_fp16"), val = tensor<fp16, [64]>(BLOBFILE(path = tensor<string, []>("@model_path/weights/weight.bin"), offset = tensor<uint64, []>(598016)))];
            tensor<fp16, [1, 64, 256, 256]> input_33_cast_fp16 = conv(bias = body_16_bias_to_fp16, dilations = input_33_dilations_0, groups = input_33_groups_0, pad = input_33_pad_0, pad_type = input_33_pad_type_0, strides = input_33_strides_0, weight = body_16_weight_to_fp16, x = input_31_cast_fp16)[name = tensor<string, []>("input_33_cast_fp16")];
            tensor<fp32, [64]> input_35_alpha_0 = const()[name = tensor<string, []>("input_35_alpha_0"), val = tensor<fp32, [64]>(BLOBFILE(path = tensor<string, []>("@model_path/weights/weight.bin"), offset = tensor<uint64, []>(598208)))];
            tensor<fp16, [1, 64, 256, 256]> input_35_cast_fp16 = prelu(alpha = input_35_alpha_0, x = input_33_cast_fp16)[name = tensor<string, []>("input_35_cast_fp16")];
            tensor<string, []> input_37_pad_type_0 = const()[name = tensor<string, []>("input_37_pad_type_0"), val = tensor<string, []>("custom")];
            tensor<int32, [4]> input_37_pad_0 = const()[name = tensor<string, []>("input_37_pad_0"), val = tensor<int32, [4]>([1, 1, 1, 1])];
            tensor<int32, [2]> input_37_strides_0 = const()[name = tensor<string, []>("input_37_strides_0"), val = tensor<int32, [2]>([1, 1])];
            tensor<int32, [2]> input_37_dilations_0 = const()[name = tensor<string, []>("input_37_dilations_0"), val = tensor<int32, [2]>([1, 1])];
            tensor<int32, []> input_37_groups_0 = const()[name = tensor<string, []>("input_37_groups_0"), val = tensor<int32, []>(1)];
            tensor<fp16, [64, 64, 3, 3]> body_18_weight_to_fp16 = const()[name = tensor<string, []>("body_18_weight_to_fp16"), val = tensor<fp16, [64, 64, 3, 3]>(BLOBFILE(path = tensor<string, []>("@model_path/weights/weight.bin"), offset = tensor<uint64, []>(598528)))];
            tensor<fp16, [64]> body_18_bias_to_fp16 = const()[name = tensor<string, []>("body_18_bias_to_fp16"), val = tensor<fp16, [64]>(BLOBFILE(path = tensor<string, []>("@model_path/weights/weight.bin"), offset = tensor<uint64, []>(672320)))];
            tensor<fp16, [1, 64, 256, 256]> input_37_cast_fp16 = conv(bias = body_18_bias_to_fp16, dilations = input_37_dilations_0, groups = input_37_groups_0, pad = input_37_pad_0, pad_type = input_37_pad_type_0, strides = input_37_strides_0, weight = body_18_weight_to_fp16, x = input_35_cast_fp16)[name = tensor<string, []>("input_37_cast_fp16")];
            tensor<fp32, [64]> input_39_alpha_0 = const()[name = tensor<string, []>("input_39_alpha_0"), val = tensor<fp32, [64]>(BLOBFILE(path = tensor<string, []>("@model_path/weights/weight.bin"), offset = tensor<uint64, []>(672512)))];
            tensor<fp16, [1, 64, 256, 256]> input_39_cast_fp16 = prelu(alpha = input_39_alpha_0, x = input_37_cast_fp16)[name = tensor<string, []>("input_39_cast_fp16")];
            tensor<string, []> input_41_pad_type_0 = const()[name = tensor<string, []>("input_41_pad_type_0"), val = tensor<string, []>("custom")];
            tensor<int32, [4]> input_41_pad_0 = const()[name = tensor<string, []>("input_41_pad_0"), val = tensor<int32, [4]>([1, 1, 1, 1])];
            tensor<int32, [2]> input_41_strides_0 = const()[name = tensor<string, []>("input_41_strides_0"), val = tensor<int32, [2]>([1, 1])];
            tensor<int32, [2]> input_41_dilations_0 = const()[name = tensor<string, []>("input_41_dilations_0"), val = tensor<int32, [2]>([1, 1])];
            tensor<int32, []> input_41_groups_0 = const()[name = tensor<string, []>("input_41_groups_0"), val = tensor<int32, []>(1)];
            tensor<fp16, [64, 64, 3, 3]> body_20_weight_to_fp16 = const()[name = tensor<string, []>("body_20_weight_to_fp16"), val = tensor<fp16, [64, 64, 3, 3]>(BLOBFILE(path = tensor<string, []>("@model_path/weights/weight.bin"), offset = tensor<uint64, []>(672832)))];
            tensor<fp16, [64]> body_20_bias_to_fp16 = const()[name = tensor<string, []>("body_20_bias_to_fp16"), val = tensor<fp16, [64]>(BLOBFILE(path = tensor<string, []>("@model_path/weights/weight.bin"), offset = tensor<uint64, []>(746624)))];
            tensor<fp16, [1, 64, 256, 256]> input_41_cast_fp16 = conv(bias = body_20_bias_to_fp16, dilations = input_41_dilations_0, groups = input_41_groups_0, pad = input_41_pad_0, pad_type = input_41_pad_type_0, strides = input_41_strides_0, weight = body_20_weight_to_fp16, x = input_39_cast_fp16)[name = tensor<string, []>("input_41_cast_fp16")];
            tensor<fp32, [64]> input_43_alpha_0 = const()[name = tensor<string, []>("input_43_alpha_0"), val = tensor<fp32, [64]>(BLOBFILE(path = tensor<string, []>("@model_path/weights/weight.bin"), offset = tensor<uint64, []>(746816)))];
            tensor<fp16, [1, 64, 256, 256]> input_43_cast_fp16 = prelu(alpha = input_43_alpha_0, x = input_41_cast_fp16)[name = tensor<string, []>("input_43_cast_fp16")];
            tensor<string, []> input_45_pad_type_0 = const()[name = tensor<string, []>("input_45_pad_type_0"), val = tensor<string, []>("custom")];
            tensor<int32, [4]> input_45_pad_0 = const()[name = tensor<string, []>("input_45_pad_0"), val = tensor<int32, [4]>([1, 1, 1, 1])];
            tensor<int32, [2]> input_45_strides_0 = const()[name = tensor<string, []>("input_45_strides_0"), val = tensor<int32, [2]>([1, 1])];
            tensor<int32, [2]> input_45_dilations_0 = const()[name = tensor<string, []>("input_45_dilations_0"), val = tensor<int32, [2]>([1, 1])];
            tensor<int32, []> input_45_groups_0 = const()[name = tensor<string, []>("input_45_groups_0"), val = tensor<int32, []>(1)];
            tensor<fp16, [64, 64, 3, 3]> body_22_weight_to_fp16 = const()[name = tensor<string, []>("body_22_weight_to_fp16"), val = tensor<fp16, [64, 64, 3, 3]>(BLOBFILE(path = tensor<string, []>("@model_path/weights/weight.bin"), offset = tensor<uint64, []>(747136)))];
            tensor<fp16, [64]> body_22_bias_to_fp16 = const()[name = tensor<string, []>("body_22_bias_to_fp16"), val = tensor<fp16, [64]>(BLOBFILE(path = tensor<string, []>("@model_path/weights/weight.bin"), offset = tensor<uint64, []>(820928)))];
            tensor<fp16, [1, 64, 256, 256]> input_45_cast_fp16 = conv(bias = body_22_bias_to_fp16, dilations = input_45_dilations_0, groups = input_45_groups_0, pad = input_45_pad_0, pad_type = input_45_pad_type_0, strides = input_45_strides_0, weight = body_22_weight_to_fp16, x = input_43_cast_fp16)[name = tensor<string, []>("input_45_cast_fp16")];
            tensor<fp32, [64]> input_47_alpha_0 = const()[name = tensor<string, []>("input_47_alpha_0"), val = tensor<fp32, [64]>(BLOBFILE(path = tensor<string, []>("@model_path/weights/weight.bin"), offset = tensor<uint64, []>(821120)))];
            tensor<fp16, [1, 64, 256, 256]> input_47_cast_fp16 = prelu(alpha = input_47_alpha_0, x = input_45_cast_fp16)[name = tensor<string, []>("input_47_cast_fp16")];
            tensor<string, []> input_49_pad_type_0 = const()[name = tensor<string, []>("input_49_pad_type_0"), val = tensor<string, []>("custom")];
            tensor<int32, [4]> input_49_pad_0 = const()[name = tensor<string, []>("input_49_pad_0"), val = tensor<int32, [4]>([1, 1, 1, 1])];
            tensor<int32, [2]> input_49_strides_0 = const()[name = tensor<string, []>("input_49_strides_0"), val = tensor<int32, [2]>([1, 1])];
            tensor<int32, [2]> input_49_dilations_0 = const()[name = tensor<string, []>("input_49_dilations_0"), val = tensor<int32, [2]>([1, 1])];
            tensor<int32, []> input_49_groups_0 = const()[name = tensor<string, []>("input_49_groups_0"), val = tensor<int32, []>(1)];
            tensor<fp16, [64, 64, 3, 3]> body_24_weight_to_fp16 = const()[name = tensor<string, []>("body_24_weight_to_fp16"), val = tensor<fp16, [64, 64, 3, 3]>(BLOBFILE(path = tensor<string, []>("@model_path/weights/weight.bin"), offset = tensor<uint64, []>(821440)))];
            tensor<fp16, [64]> body_24_bias_to_fp16 = const()[name = tensor<string, []>("body_24_bias_to_fp16"), val = tensor<fp16, [64]>(BLOBFILE(path = tensor<string, []>("@model_path/weights/weight.bin"), offset = tensor<uint64, []>(895232)))];
            tensor<fp16, [1, 64, 256, 256]> input_49_cast_fp16 = conv(bias = body_24_bias_to_fp16, dilations = input_49_dilations_0, groups = input_49_groups_0, pad = input_49_pad_0, pad_type = input_49_pad_type_0, strides = input_49_strides_0, weight = body_24_weight_to_fp16, x = input_47_cast_fp16)[name = tensor<string, []>("input_49_cast_fp16")];
            tensor<fp32, [64]> input_51_alpha_0 = const()[name = tensor<string, []>("input_51_alpha_0"), val = tensor<fp32, [64]>(BLOBFILE(path = tensor<string, []>("@model_path/weights/weight.bin"), offset = tensor<uint64, []>(895424)))];
            tensor<fp16, [1, 64, 256, 256]> input_51_cast_fp16 = prelu(alpha = input_51_alpha_0, x = input_49_cast_fp16)[name = tensor<string, []>("input_51_cast_fp16")];
            tensor<string, []> input_53_pad_type_0 = const()[name = tensor<string, []>("input_53_pad_type_0"), val = tensor<string, []>("custom")];
            tensor<int32, [4]> input_53_pad_0 = const()[name = tensor<string, []>("input_53_pad_0"), val = tensor<int32, [4]>([1, 1, 1, 1])];
            tensor<int32, [2]> input_53_strides_0 = const()[name = tensor<string, []>("input_53_strides_0"), val = tensor<int32, [2]>([1, 1])];
            tensor<int32, [2]> input_53_dilations_0 = const()[name = tensor<string, []>("input_53_dilations_0"), val = tensor<int32, [2]>([1, 1])];
            tensor<int32, []> input_53_groups_0 = const()[name = tensor<string, []>("input_53_groups_0"), val = tensor<int32, []>(1)];
            tensor<fp16, [64, 64, 3, 3]> body_26_weight_to_fp16 = const()[name = tensor<string, []>("body_26_weight_to_fp16"), val = tensor<fp16, [64, 64, 3, 3]>(BLOBFILE(path = tensor<string, []>("@model_path/weights/weight.bin"), offset = tensor<uint64, []>(895744)))];
            tensor<fp16, [64]> body_26_bias_to_fp16 = const()[name = tensor<string, []>("body_26_bias_to_fp16"), val = tensor<fp16, [64]>(BLOBFILE(path = tensor<string, []>("@model_path/weights/weight.bin"), offset = tensor<uint64, []>(969536)))];
            tensor<fp16, [1, 64, 256, 256]> input_53_cast_fp16 = conv(bias = body_26_bias_to_fp16, dilations = input_53_dilations_0, groups = input_53_groups_0, pad = input_53_pad_0, pad_type = input_53_pad_type_0, strides = input_53_strides_0, weight = body_26_weight_to_fp16, x = input_51_cast_fp16)[name = tensor<string, []>("input_53_cast_fp16")];
            tensor<fp32, [64]> input_55_alpha_0 = const()[name = tensor<string, []>("input_55_alpha_0"), val = tensor<fp32, [64]>(BLOBFILE(path = tensor<string, []>("@model_path/weights/weight.bin"), offset = tensor<uint64, []>(969728)))];
            tensor<fp16, [1, 64, 256, 256]> input_55_cast_fp16 = prelu(alpha = input_55_alpha_0, x = input_53_cast_fp16)[name = tensor<string, []>("input_55_cast_fp16")];
            tensor<string, []> input_57_pad_type_0 = const()[name = tensor<string, []>("input_57_pad_type_0"), val = tensor<string, []>("custom")];
            tensor<int32, [4]> input_57_pad_0 = const()[name = tensor<string, []>("input_57_pad_0"), val = tensor<int32, [4]>([1, 1, 1, 1])];
            tensor<int32, [2]> input_57_strides_0 = const()[name = tensor<string, []>("input_57_strides_0"), val = tensor<int32, [2]>([1, 1])];
            tensor<int32, [2]> input_57_dilations_0 = const()[name = tensor<string, []>("input_57_dilations_0"), val = tensor<int32, [2]>([1, 1])];
            tensor<int32, []> input_57_groups_0 = const()[name = tensor<string, []>("input_57_groups_0"), val = tensor<int32, []>(1)];
            tensor<fp16, [64, 64, 3, 3]> body_28_weight_to_fp16 = const()[name = tensor<string, []>("body_28_weight_to_fp16"), val = tensor<fp16, [64, 64, 3, 3]>(BLOBFILE(path = tensor<string, []>("@model_path/weights/weight.bin"), offset = tensor<uint64, []>(970048)))];
            tensor<fp16, [64]> body_28_bias_to_fp16 = const()[name = tensor<string, []>("body_28_bias_to_fp16"), val = tensor<fp16, [64]>(BLOBFILE(path = tensor<string, []>("@model_path/weights/weight.bin"), offset = tensor<uint64, []>(1043840)))];
            tensor<fp16, [1, 64, 256, 256]> input_57_cast_fp16 = conv(bias = body_28_bias_to_fp16, dilations = input_57_dilations_0, groups = input_57_groups_0, pad = input_57_pad_0, pad_type = input_57_pad_type_0, strides = input_57_strides_0, weight = body_28_weight_to_fp16, x = input_55_cast_fp16)[name = tensor<string, []>("input_57_cast_fp16")];
            tensor<fp32, [64]> input_59_alpha_0 = const()[name = tensor<string, []>("input_59_alpha_0"), val = tensor<fp32, [64]>(BLOBFILE(path = tensor<string, []>("@model_path/weights/weight.bin"), offset = tensor<uint64, []>(1044032)))];
            tensor<fp16, [1, 64, 256, 256]> input_59_cast_fp16 = prelu(alpha = input_59_alpha_0, x = input_57_cast_fp16)[name = tensor<string, []>("input_59_cast_fp16")];
            tensor<string, []> input_61_pad_type_0 = const()[name = tensor<string, []>("input_61_pad_type_0"), val = tensor<string, []>("custom")];
            tensor<int32, [4]> input_61_pad_0 = const()[name = tensor<string, []>("input_61_pad_0"), val = tensor<int32, [4]>([1, 1, 1, 1])];
            tensor<int32, [2]> input_61_strides_0 = const()[name = tensor<string, []>("input_61_strides_0"), val = tensor<int32, [2]>([1, 1])];
            tensor<int32, [2]> input_61_dilations_0 = const()[name = tensor<string, []>("input_61_dilations_0"), val = tensor<int32, [2]>([1, 1])];
            tensor<int32, []> input_61_groups_0 = const()[name = tensor<string, []>("input_61_groups_0"), val = tensor<int32, []>(1)];
            tensor<fp16, [64, 64, 3, 3]> body_30_weight_to_fp16 = const()[name = tensor<string, []>("body_30_weight_to_fp16"), val = tensor<fp16, [64, 64, 3, 3]>(BLOBFILE(path = tensor<string, []>("@model_path/weights/weight.bin"), offset = tensor<uint64, []>(1044352)))];
            tensor<fp16, [64]> body_30_bias_to_fp16 = const()[name = tensor<string, []>("body_30_bias_to_fp16"), val = tensor<fp16, [64]>(BLOBFILE(path = tensor<string, []>("@model_path/weights/weight.bin"), offset = tensor<uint64, []>(1118144)))];
            tensor<fp16, [1, 64, 256, 256]> input_61_cast_fp16 = conv(bias = body_30_bias_to_fp16, dilations = input_61_dilations_0, groups = input_61_groups_0, pad = input_61_pad_0, pad_type = input_61_pad_type_0, strides = input_61_strides_0, weight = body_30_weight_to_fp16, x = input_59_cast_fp16)[name = tensor<string, []>("input_61_cast_fp16")];
            tensor<fp32, [64]> input_63_alpha_0 = const()[name = tensor<string, []>("input_63_alpha_0"), val = tensor<fp32, [64]>(BLOBFILE(path = tensor<string, []>("@model_path/weights/weight.bin"), offset = tensor<uint64, []>(1118336)))];
            tensor<fp16, [1, 64, 256, 256]> input_63_cast_fp16 = prelu(alpha = input_63_alpha_0, x = input_61_cast_fp16)[name = tensor<string, []>("input_63_cast_fp16")];
            tensor<string, []> input_65_pad_type_0 = const()[name = tensor<string, []>("input_65_pad_type_0"), val = tensor<string, []>("custom")];
            tensor<int32, [4]> input_65_pad_0 = const()[name = tensor<string, []>("input_65_pad_0"), val = tensor<int32, [4]>([1, 1, 1, 1])];
            tensor<int32, [2]> input_65_strides_0 = const()[name = tensor<string, []>("input_65_strides_0"), val = tensor<int32, [2]>([1, 1])];
            tensor<int32, [2]> input_65_dilations_0 = const()[name = tensor<string, []>("input_65_dilations_0"), val = tensor<int32, [2]>([1, 1])];
            tensor<int32, []> input_65_groups_0 = const()[name = tensor<string, []>("input_65_groups_0"), val = tensor<int32, []>(1)];
            tensor<fp16, [64, 64, 3, 3]> body_32_weight_to_fp16 = const()[name = tensor<string, []>("body_32_weight_to_fp16"), val = tensor<fp16, [64, 64, 3, 3]>(BLOBFILE(path = tensor<string, []>("@model_path/weights/weight.bin"), offset = tensor<uint64, []>(1118656)))];
            tensor<fp16, [64]> body_32_bias_to_fp16 = const()[name = tensor<string, []>("body_32_bias_to_fp16"), val = tensor<fp16, [64]>(BLOBFILE(path = tensor<string, []>("@model_path/weights/weight.bin"), offset = tensor<uint64, []>(1192448)))];
            tensor<fp16, [1, 64, 256, 256]> input_65_cast_fp16 = conv(bias = body_32_bias_to_fp16, dilations = input_65_dilations_0, groups = input_65_groups_0, pad = input_65_pad_0, pad_type = input_65_pad_type_0, strides = input_65_strides_0, weight = body_32_weight_to_fp16, x = input_63_cast_fp16)[name = tensor<string, []>("input_65_cast_fp16")];
            tensor<fp32, [64]> input_67_alpha_0 = const()[name = tensor<string, []>("input_67_alpha_0"), val = tensor<fp32, [64]>(BLOBFILE(path = tensor<string, []>("@model_path/weights/weight.bin"), offset = tensor<uint64, []>(1192640)))];
            tensor<fp16, [1, 64, 256, 256]> input_67_cast_fp16 = prelu(alpha = input_67_alpha_0, x = input_65_cast_fp16)[name = tensor<string, []>("input_67_cast_fp16")];
            tensor<string, []> input_69_pad_type_0 = const()[name = tensor<string, []>("input_69_pad_type_0"), val = tensor<string, []>("custom")];
            tensor<int32, [4]> input_69_pad_0 = const()[name = tensor<string, []>("input_69_pad_0"), val = tensor<int32, [4]>([1, 1, 1, 1])];
            tensor<int32, [2]> input_69_strides_0 = const()[name = tensor<string, []>("input_69_strides_0"), val = tensor<int32, [2]>([1, 1])];
            tensor<int32, [2]> input_69_dilations_0 = const()[name = tensor<string, []>("input_69_dilations_0"), val = tensor<int32, [2]>([1, 1])];
            tensor<int32, []> input_69_groups_0 = const()[name = tensor<string, []>("input_69_groups_0"), val = tensor<int32, []>(1)];
            tensor<fp16, [64, 64, 3, 3]> body_34_weight_to_fp16 = const()[name = tensor<string, []>("body_34_weight_to_fp16"), val = tensor<fp16, [64, 64, 3, 3]>(BLOBFILE(path = tensor<string, []>("@model_path/weights/weight.bin"), offset = tensor<uint64, []>(1192960)))];
            tensor<fp16, [64]> body_34_bias_to_fp16 = const()[name = tensor<string, []>("body_34_bias_to_fp16"), val = tensor<fp16, [64]>(BLOBFILE(path = tensor<string, []>("@model_path/weights/weight.bin"), offset = tensor<uint64, []>(1266752)))];
            tensor<fp16, [1, 64, 256, 256]> input_69_cast_fp16 = conv(bias = body_34_bias_to_fp16, dilations = input_69_dilations_0, groups = input_69_groups_0, pad = input_69_pad_0, pad_type = input_69_pad_type_0, strides = input_69_strides_0, weight = body_34_weight_to_fp16, x = input_67_cast_fp16)[name = tensor<string, []>("input_69_cast_fp16")];
            tensor<fp32, [64]> input_71_alpha_0 = const()[name = tensor<string, []>("input_71_alpha_0"), val = tensor<fp32, [64]>(BLOBFILE(path = tensor<string, []>("@model_path/weights/weight.bin"), offset = tensor<uint64, []>(1266944)))];
            tensor<fp16, [1, 64, 256, 256]> input_71_cast_fp16 = prelu(alpha = input_71_alpha_0, x = input_69_cast_fp16)[name = tensor<string, []>("input_71_cast_fp16")];
            tensor<string, []> input_73_pad_type_0 = const()[name = tensor<string, []>("input_73_pad_type_0"), val = tensor<string, []>("custom")];
            tensor<int32, [4]> input_73_pad_0 = const()[name = tensor<string, []>("input_73_pad_0"), val = tensor<int32, [4]>([1, 1, 1, 1])];
            tensor<int32, [2]> input_73_strides_0 = const()[name = tensor<string, []>("input_73_strides_0"), val = tensor<int32, [2]>([1, 1])];
            tensor<int32, [2]> input_73_dilations_0 = const()[name = tensor<string, []>("input_73_dilations_0"), val = tensor<int32, [2]>([1, 1])];
            tensor<int32, []> input_73_groups_0 = const()[name = tensor<string, []>("input_73_groups_0"), val = tensor<int32, []>(1)];
            tensor<fp16, [64, 64, 3, 3]> body_36_weight_to_fp16 = const()[name = tensor<string, []>("body_36_weight_to_fp16"), val = tensor<fp16, [64, 64, 3, 3]>(BLOBFILE(path = tensor<string, []>("@model_path/weights/weight.bin"), offset = tensor<uint64, []>(1267264)))];
            tensor<fp16, [64]> body_36_bias_to_fp16 = const()[name = tensor<string, []>("body_36_bias_to_fp16"), val = tensor<fp16, [64]>(BLOBFILE(path = tensor<string, []>("@model_path/weights/weight.bin"), offset = tensor<uint64, []>(1341056)))];
            tensor<fp16, [1, 64, 256, 256]> input_73_cast_fp16 = conv(bias = body_36_bias_to_fp16, dilations = input_73_dilations_0, groups = input_73_groups_0, pad = input_73_pad_0, pad_type = input_73_pad_type_0, strides = input_73_strides_0, weight = body_36_weight_to_fp16, x = input_71_cast_fp16)[name = tensor<string, []>("input_73_cast_fp16")];
            tensor<fp32, [64]> input_75_alpha_0 = const()[name = tensor<string, []>("input_75_alpha_0"), val = tensor<fp32, [64]>(BLOBFILE(path = tensor<string, []>("@model_path/weights/weight.bin"), offset = tensor<uint64, []>(1341248)))];
            tensor<fp16, [1, 64, 256, 256]> input_75_cast_fp16 = prelu(alpha = input_75_alpha_0, x = input_73_cast_fp16)[name = tensor<string, []>("input_75_cast_fp16")];
            tensor<string, []> input_77_pad_type_0 = const()[name = tensor<string, []>("input_77_pad_type_0"), val = tensor<string, []>("custom")];
            tensor<int32, [4]> input_77_pad_0 = const()[name = tensor<string, []>("input_77_pad_0"), val = tensor<int32, [4]>([1, 1, 1, 1])];
            tensor<int32, [2]> input_77_strides_0 = const()[name = tensor<string, []>("input_77_strides_0"), val = tensor<int32, [2]>([1, 1])];
            tensor<int32, [2]> input_77_dilations_0 = const()[name = tensor<string, []>("input_77_dilations_0"), val = tensor<int32, [2]>([1, 1])];
            tensor<int32, []> input_77_groups_0 = const()[name = tensor<string, []>("input_77_groups_0"), val = tensor<int32, []>(1)];
            tensor<fp16, [64, 64, 3, 3]> body_38_weight_to_fp16 = const()[name = tensor<string, []>("body_38_weight_to_fp16"), val = tensor<fp16, [64, 64, 3, 3]>(BLOBFILE(path = tensor<string, []>("@model_path/weights/weight.bin"), offset = tensor<uint64, []>(1341568)))];
            tensor<fp16, [64]> body_38_bias_to_fp16 = const()[name = tensor<string, []>("body_38_bias_to_fp16"), val = tensor<fp16, [64]>(BLOBFILE(path = tensor<string, []>("@model_path/weights/weight.bin"), offset = tensor<uint64, []>(1415360)))];
            tensor<fp16, [1, 64, 256, 256]> input_77_cast_fp16 = conv(bias = body_38_bias_to_fp16, dilations = input_77_dilations_0, groups = input_77_groups_0, pad = input_77_pad_0, pad_type = input_77_pad_type_0, strides = input_77_strides_0, weight = body_38_weight_to_fp16, x = input_75_cast_fp16)[name = tensor<string, []>("input_77_cast_fp16")];
            tensor<fp32, [64]> input_79_alpha_0 = const()[name = tensor<string, []>("input_79_alpha_0"), val = tensor<fp32, [64]>(BLOBFILE(path = tensor<string, []>("@model_path/weights/weight.bin"), offset = tensor<uint64, []>(1415552)))];
            tensor<fp16, [1, 64, 256, 256]> input_79_cast_fp16 = prelu(alpha = input_79_alpha_0, x = input_77_cast_fp16)[name = tensor<string, []>("input_79_cast_fp16")];
            tensor<string, []> input_81_pad_type_0 = const()[name = tensor<string, []>("input_81_pad_type_0"), val = tensor<string, []>("custom")];
            tensor<int32, [4]> input_81_pad_0 = const()[name = tensor<string, []>("input_81_pad_0"), val = tensor<int32, [4]>([1, 1, 1, 1])];
            tensor<int32, [2]> input_81_strides_0 = const()[name = tensor<string, []>("input_81_strides_0"), val = tensor<int32, [2]>([1, 1])];
            tensor<int32, [2]> input_81_dilations_0 = const()[name = tensor<string, []>("input_81_dilations_0"), val = tensor<int32, [2]>([1, 1])];
            tensor<int32, []> input_81_groups_0 = const()[name = tensor<string, []>("input_81_groups_0"), val = tensor<int32, []>(1)];
            tensor<fp16, [64, 64, 3, 3]> body_40_weight_to_fp16 = const()[name = tensor<string, []>("body_40_weight_to_fp16"), val = tensor<fp16, [64, 64, 3, 3]>(BLOBFILE(path = tensor<string, []>("@model_path/weights/weight.bin"), offset = tensor<uint64, []>(1415872)))];
            tensor<fp16, [64]> body_40_bias_to_fp16 = const()[name = tensor<string, []>("body_40_bias_to_fp16"), val = tensor<fp16, [64]>(BLOBFILE(path = tensor<string, []>("@model_path/weights/weight.bin"), offset = tensor<uint64, []>(1489664)))];
            tensor<fp16, [1, 64, 256, 256]> input_81_cast_fp16 = conv(bias = body_40_bias_to_fp16, dilations = input_81_dilations_0, groups = input_81_groups_0, pad = input_81_pad_0, pad_type = input_81_pad_type_0, strides = input_81_strides_0, weight = body_40_weight_to_fp16, x = input_79_cast_fp16)[name = tensor<string, []>("input_81_cast_fp16")];
            tensor<fp32, [64]> input_83_alpha_0 = const()[name = tensor<string, []>("input_83_alpha_0"), val = tensor<fp32, [64]>(BLOBFILE(path = tensor<string, []>("@model_path/weights/weight.bin"), offset = tensor<uint64, []>(1489856)))];
            tensor<fp16, [1, 64, 256, 256]> input_83_cast_fp16 = prelu(alpha = input_83_alpha_0, x = input_81_cast_fp16)[name = tensor<string, []>("input_83_cast_fp16")];
            tensor<string, []> input_85_pad_type_0 = const()[name = tensor<string, []>("input_85_pad_type_0"), val = tensor<string, []>("custom")];
            tensor<int32, [4]> input_85_pad_0 = const()[name = tensor<string, []>("input_85_pad_0"), val = tensor<int32, [4]>([1, 1, 1, 1])];
            tensor<int32, [2]> input_85_strides_0 = const()[name = tensor<string, []>("input_85_strides_0"), val = tensor<int32, [2]>([1, 1])];
            tensor<int32, [2]> input_85_dilations_0 = const()[name = tensor<string, []>("input_85_dilations_0"), val = tensor<int32, [2]>([1, 1])];
            tensor<int32, []> input_85_groups_0 = const()[name = tensor<string, []>("input_85_groups_0"), val = tensor<int32, []>(1)];
            tensor<fp16, [64, 64, 3, 3]> body_42_weight_to_fp16 = const()[name = tensor<string, []>("body_42_weight_to_fp16"), val = tensor<fp16, [64, 64, 3, 3]>(BLOBFILE(path = tensor<string, []>("@model_path/weights/weight.bin"), offset = tensor<uint64, []>(1490176)))];
            tensor<fp16, [64]> body_42_bias_to_fp16 = const()[name = tensor<string, []>("body_42_bias_to_fp16"), val = tensor<fp16, [64]>(BLOBFILE(path = tensor<string, []>("@model_path/weights/weight.bin"), offset = tensor<uint64, []>(1563968)))];
            tensor<fp16, [1, 64, 256, 256]> input_85_cast_fp16 = conv(bias = body_42_bias_to_fp16, dilations = input_85_dilations_0, groups = input_85_groups_0, pad = input_85_pad_0, pad_type = input_85_pad_type_0, strides = input_85_strides_0, weight = body_42_weight_to_fp16, x = input_83_cast_fp16)[name = tensor<string, []>("input_85_cast_fp16")];
            tensor<fp32, [64]> input_87_alpha_0 = const()[name = tensor<string, []>("input_87_alpha_0"), val = tensor<fp32, [64]>(BLOBFILE(path = tensor<string, []>("@model_path/weights/weight.bin"), offset = tensor<uint64, []>(1564160)))];
            tensor<fp16, [1, 64, 256, 256]> input_87_cast_fp16 = prelu(alpha = input_87_alpha_0, x = input_85_cast_fp16)[name = tensor<string, []>("input_87_cast_fp16")];
            tensor<string, []> input_89_pad_type_0 = const()[name = tensor<string, []>("input_89_pad_type_0"), val = tensor<string, []>("custom")];
            tensor<int32, [4]> input_89_pad_0 = const()[name = tensor<string, []>("input_89_pad_0"), val = tensor<int32, [4]>([1, 1, 1, 1])];
            tensor<int32, [2]> input_89_strides_0 = const()[name = tensor<string, []>("input_89_strides_0"), val = tensor<int32, [2]>([1, 1])];
            tensor<int32, [2]> input_89_dilations_0 = const()[name = tensor<string, []>("input_89_dilations_0"), val = tensor<int32, [2]>([1, 1])];
            tensor<int32, []> input_89_groups_0 = const()[name = tensor<string, []>("input_89_groups_0"), val = tensor<int32, []>(1)];
            tensor<fp16, [64, 64, 3, 3]> body_44_weight_to_fp16 = const()[name = tensor<string, []>("body_44_weight_to_fp16"), val = tensor<fp16, [64, 64, 3, 3]>(BLOBFILE(path = tensor<string, []>("@model_path/weights/weight.bin"), offset = tensor<uint64, []>(1564480)))];
            tensor<fp16, [64]> body_44_bias_to_fp16 = const()[name = tensor<string, []>("body_44_bias_to_fp16"), val = tensor<fp16, [64]>(BLOBFILE(path = tensor<string, []>("@model_path/weights/weight.bin"), offset = tensor<uint64, []>(1638272)))];
            tensor<fp16, [1, 64, 256, 256]> input_89_cast_fp16 = conv(bias = body_44_bias_to_fp16, dilations = input_89_dilations_0, groups = input_89_groups_0, pad = input_89_pad_0, pad_type = input_89_pad_type_0, strides = input_89_strides_0, weight = body_44_weight_to_fp16, x = input_87_cast_fp16)[name = tensor<string, []>("input_89_cast_fp16")];
            tensor<fp32, [64]> input_91_alpha_0 = const()[name = tensor<string, []>("input_91_alpha_0"), val = tensor<fp32, [64]>(BLOBFILE(path = tensor<string, []>("@model_path/weights/weight.bin"), offset = tensor<uint64, []>(1638464)))];
            tensor<fp16, [1, 64, 256, 256]> input_91_cast_fp16 = prelu(alpha = input_91_alpha_0, x = input_89_cast_fp16)[name = tensor<string, []>("input_91_cast_fp16")];
            tensor<string, []> input_93_pad_type_0 = const()[name = tensor<string, []>("input_93_pad_type_0"), val = tensor<string, []>("custom")];
            tensor<int32, [4]> input_93_pad_0 = const()[name = tensor<string, []>("input_93_pad_0"), val = tensor<int32, [4]>([1, 1, 1, 1])];
            tensor<int32, [2]> input_93_strides_0 = const()[name = tensor<string, []>("input_93_strides_0"), val = tensor<int32, [2]>([1, 1])];
            tensor<int32, [2]> input_93_dilations_0 = const()[name = tensor<string, []>("input_93_dilations_0"), val = tensor<int32, [2]>([1, 1])];
            tensor<int32, []> input_93_groups_0 = const()[name = tensor<string, []>("input_93_groups_0"), val = tensor<int32, []>(1)];
            tensor<fp16, [64, 64, 3, 3]> body_46_weight_to_fp16 = const()[name = tensor<string, []>("body_46_weight_to_fp16"), val = tensor<fp16, [64, 64, 3, 3]>(BLOBFILE(path = tensor<string, []>("@model_path/weights/weight.bin"), offset = tensor<uint64, []>(1638784)))];
            tensor<fp16, [64]> body_46_bias_to_fp16 = const()[name = tensor<string, []>("body_46_bias_to_fp16"), val = tensor<fp16, [64]>(BLOBFILE(path = tensor<string, []>("@model_path/weights/weight.bin"), offset = tensor<uint64, []>(1712576)))];
            tensor<fp16, [1, 64, 256, 256]> input_93_cast_fp16 = conv(bias = body_46_bias_to_fp16, dilations = input_93_dilations_0, groups = input_93_groups_0, pad = input_93_pad_0, pad_type = input_93_pad_type_0, strides = input_93_strides_0, weight = body_46_weight_to_fp16, x = input_91_cast_fp16)[name = tensor<string, []>("input_93_cast_fp16")];
            tensor<fp32, [64]> input_95_alpha_0 = const()[name = tensor<string, []>("input_95_alpha_0"), val = tensor<fp32, [64]>(BLOBFILE(path = tensor<string, []>("@model_path/weights/weight.bin"), offset = tensor<uint64, []>(1712768)))];
            tensor<fp16, [1, 64, 256, 256]> input_95_cast_fp16 = prelu(alpha = input_95_alpha_0, x = input_93_cast_fp16)[name = tensor<string, []>("input_95_cast_fp16")];
            tensor<string, []> input_97_pad_type_0 = const()[name = tensor<string, []>("input_97_pad_type_0"), val = tensor<string, []>("custom")];
            tensor<int32, [4]> input_97_pad_0 = const()[name = tensor<string, []>("input_97_pad_0"), val = tensor<int32, [4]>([1, 1, 1, 1])];
            tensor<int32, [2]> input_97_strides_0 = const()[name = tensor<string, []>("input_97_strides_0"), val = tensor<int32, [2]>([1, 1])];
            tensor<int32, [2]> input_97_dilations_0 = const()[name = tensor<string, []>("input_97_dilations_0"), val = tensor<int32, [2]>([1, 1])];
            tensor<int32, []> input_97_groups_0 = const()[name = tensor<string, []>("input_97_groups_0"), val = tensor<int32, []>(1)];
            tensor<fp16, [64, 64, 3, 3]> body_48_weight_to_fp16 = const()[name = tensor<string, []>("body_48_weight_to_fp16"), val = tensor<fp16, [64, 64, 3, 3]>(BLOBFILE(path = tensor<string, []>("@model_path/weights/weight.bin"), offset = tensor<uint64, []>(1713088)))];
            tensor<fp16, [64]> body_48_bias_to_fp16 = const()[name = tensor<string, []>("body_48_bias_to_fp16"), val = tensor<fp16, [64]>(BLOBFILE(path = tensor<string, []>("@model_path/weights/weight.bin"), offset = tensor<uint64, []>(1786880)))];
            tensor<fp16, [1, 64, 256, 256]> input_97_cast_fp16 = conv(bias = body_48_bias_to_fp16, dilations = input_97_dilations_0, groups = input_97_groups_0, pad = input_97_pad_0, pad_type = input_97_pad_type_0, strides = input_97_strides_0, weight = body_48_weight_to_fp16, x = input_95_cast_fp16)[name = tensor<string, []>("input_97_cast_fp16")];
            tensor<fp32, [64]> input_99_alpha_0 = const()[name = tensor<string, []>("input_99_alpha_0"), val = tensor<fp32, [64]>(BLOBFILE(path = tensor<string, []>("@model_path/weights/weight.bin"), offset = tensor<uint64, []>(1787072)))];
            tensor<fp16, [1, 64, 256, 256]> input_99_cast_fp16 = prelu(alpha = input_99_alpha_0, x = input_97_cast_fp16)[name = tensor<string, []>("input_99_cast_fp16")];
            tensor<string, []> input_101_pad_type_0 = const()[name = tensor<string, []>("input_101_pad_type_0"), val = tensor<string, []>("custom")];
            tensor<int32, [4]> input_101_pad_0 = const()[name = tensor<string, []>("input_101_pad_0"), val = tensor<int32, [4]>([1, 1, 1, 1])];
            tensor<int32, [2]> input_101_strides_0 = const()[name = tensor<string, []>("input_101_strides_0"), val = tensor<int32, [2]>([1, 1])];
            tensor<int32, [2]> input_101_dilations_0 = const()[name = tensor<string, []>("input_101_dilations_0"), val = tensor<int32, [2]>([1, 1])];
            tensor<int32, []> input_101_groups_0 = const()[name = tensor<string, []>("input_101_groups_0"), val = tensor<int32, []>(1)];
            tensor<fp16, [64, 64, 3, 3]> body_50_weight_to_fp16 = const()[name = tensor<string, []>("body_50_weight_to_fp16"), val = tensor<fp16, [64, 64, 3, 3]>(BLOBFILE(path = tensor<string, []>("@model_path/weights/weight.bin"), offset = tensor<uint64, []>(1787392)))];
            tensor<fp16, [64]> body_50_bias_to_fp16 = const()[name = tensor<string, []>("body_50_bias_to_fp16"), val = tensor<fp16, [64]>(BLOBFILE(path = tensor<string, []>("@model_path/weights/weight.bin"), offset = tensor<uint64, []>(1861184)))];
            tensor<fp16, [1, 64, 256, 256]> input_101_cast_fp16 = conv(bias = body_50_bias_to_fp16, dilations = input_101_dilations_0, groups = input_101_groups_0, pad = input_101_pad_0, pad_type = input_101_pad_type_0, strides = input_101_strides_0, weight = body_50_weight_to_fp16, x = input_99_cast_fp16)[name = tensor<string, []>("input_101_cast_fp16")];
            tensor<fp32, [64]> input_103_alpha_0 = const()[name = tensor<string, []>("input_103_alpha_0"), val = tensor<fp32, [64]>(BLOBFILE(path = tensor<string, []>("@model_path/weights/weight.bin"), offset = tensor<uint64, []>(1861376)))];
            tensor<fp16, [1, 64, 256, 256]> input_103_cast_fp16 = prelu(alpha = input_103_alpha_0, x = input_101_cast_fp16)[name = tensor<string, []>("input_103_cast_fp16")];
            tensor<string, []> input_105_pad_type_0 = const()[name = tensor<string, []>("input_105_pad_type_0"), val = tensor<string, []>("custom")];
            tensor<int32, [4]> input_105_pad_0 = const()[name = tensor<string, []>("input_105_pad_0"), val = tensor<int32, [4]>([1, 1, 1, 1])];
            tensor<int32, [2]> input_105_strides_0 = const()[name = tensor<string, []>("input_105_strides_0"), val = tensor<int32, [2]>([1, 1])];
            tensor<int32, [2]> input_105_dilations_0 = const()[name = tensor<string, []>("input_105_dilations_0"), val = tensor<int32, [2]>([1, 1])];
            tensor<int32, []> input_105_groups_0 = const()[name = tensor<string, []>("input_105_groups_0"), val = tensor<int32, []>(1)];
            tensor<fp16, [64, 64, 3, 3]> body_52_weight_to_fp16 = const()[name = tensor<string, []>("body_52_weight_to_fp16"), val = tensor<fp16, [64, 64, 3, 3]>(BLOBFILE(path = tensor<string, []>("@model_path/weights/weight.bin"), offset = tensor<uint64, []>(1861696)))];
            tensor<fp16, [64]> body_52_bias_to_fp16 = const()[name = tensor<string, []>("body_52_bias_to_fp16"), val = tensor<fp16, [64]>(BLOBFILE(path = tensor<string, []>("@model_path/weights/weight.bin"), offset = tensor<uint64, []>(1935488)))];
            tensor<fp16, [1, 64, 256, 256]> input_105_cast_fp16 = conv(bias = body_52_bias_to_fp16, dilations = input_105_dilations_0, groups = input_105_groups_0, pad = input_105_pad_0, pad_type = input_105_pad_type_0, strides = input_105_strides_0, weight = body_52_weight_to_fp16, x = input_103_cast_fp16)[name = tensor<string, []>("input_105_cast_fp16")];
            tensor<fp32, [64]> input_107_alpha_0 = const()[name = tensor<string, []>("input_107_alpha_0"), val = tensor<fp32, [64]>(BLOBFILE(path = tensor<string, []>("@model_path/weights/weight.bin"), offset = tensor<uint64, []>(1935680)))];
            tensor<fp16, [1, 64, 256, 256]> input_107_cast_fp16 = prelu(alpha = input_107_alpha_0, x = input_105_cast_fp16)[name = tensor<string, []>("input_107_cast_fp16")];
            tensor<string, []> input_109_pad_type_0 = const()[name = tensor<string, []>("input_109_pad_type_0"), val = tensor<string, []>("custom")];
            tensor<int32, [4]> input_109_pad_0 = const()[name = tensor<string, []>("input_109_pad_0"), val = tensor<int32, [4]>([1, 1, 1, 1])];
            tensor<int32, [2]> input_109_strides_0 = const()[name = tensor<string, []>("input_109_strides_0"), val = tensor<int32, [2]>([1, 1])];
            tensor<int32, [2]> input_109_dilations_0 = const()[name = tensor<string, []>("input_109_dilations_0"), val = tensor<int32, [2]>([1, 1])];
            tensor<int32, []> input_109_groups_0 = const()[name = tensor<string, []>("input_109_groups_0"), val = tensor<int32, []>(1)];
            tensor<fp16, [64, 64, 3, 3]> body_54_weight_to_fp16 = const()[name = tensor<string, []>("body_54_weight_to_fp16"), val = tensor<fp16, [64, 64, 3, 3]>(BLOBFILE(path = tensor<string, []>("@model_path/weights/weight.bin"), offset = tensor<uint64, []>(1936000)))];
            tensor<fp16, [64]> body_54_bias_to_fp16 = const()[name = tensor<string, []>("body_54_bias_to_fp16"), val = tensor<fp16, [64]>(BLOBFILE(path = tensor<string, []>("@model_path/weights/weight.bin"), offset = tensor<uint64, []>(2009792)))];
            tensor<fp16, [1, 64, 256, 256]> input_109_cast_fp16 = conv(bias = body_54_bias_to_fp16, dilations = input_109_dilations_0, groups = input_109_groups_0, pad = input_109_pad_0, pad_type = input_109_pad_type_0, strides = input_109_strides_0, weight = body_54_weight_to_fp16, x = input_107_cast_fp16)[name = tensor<string, []>("input_109_cast_fp16")];
            tensor<fp32, [64]> input_111_alpha_0 = const()[name = tensor<string, []>("input_111_alpha_0"), val = tensor<fp32, [64]>(BLOBFILE(path = tensor<string, []>("@model_path/weights/weight.bin"), offset = tensor<uint64, []>(2009984)))];
            tensor<fp16, [1, 64, 256, 256]> input_111_cast_fp16 = prelu(alpha = input_111_alpha_0, x = input_109_cast_fp16)[name = tensor<string, []>("input_111_cast_fp16")];
            tensor<string, []> input_113_pad_type_0 = const()[name = tensor<string, []>("input_113_pad_type_0"), val = tensor<string, []>("custom")];
            tensor<int32, [4]> input_113_pad_0 = const()[name = tensor<string, []>("input_113_pad_0"), val = tensor<int32, [4]>([1, 1, 1, 1])];
            tensor<int32, [2]> input_113_strides_0 = const()[name = tensor<string, []>("input_113_strides_0"), val = tensor<int32, [2]>([1, 1])];
            tensor<int32, [2]> input_113_dilations_0 = const()[name = tensor<string, []>("input_113_dilations_0"), val = tensor<int32, [2]>([1, 1])];
            tensor<int32, []> input_113_groups_0 = const()[name = tensor<string, []>("input_113_groups_0"), val = tensor<int32, []>(1)];
            tensor<fp16, [64, 64, 3, 3]> body_56_weight_to_fp16 = const()[name = tensor<string, []>("body_56_weight_to_fp16"), val = tensor<fp16, [64, 64, 3, 3]>(BLOBFILE(path = tensor<string, []>("@model_path/weights/weight.bin"), offset = tensor<uint64, []>(2010304)))];
            tensor<fp16, [64]> body_56_bias_to_fp16 = const()[name = tensor<string, []>("body_56_bias_to_fp16"), val = tensor<fp16, [64]>(BLOBFILE(path = tensor<string, []>("@model_path/weights/weight.bin"), offset = tensor<uint64, []>(2084096)))];
            tensor<fp16, [1, 64, 256, 256]> input_113_cast_fp16 = conv(bias = body_56_bias_to_fp16, dilations = input_113_dilations_0, groups = input_113_groups_0, pad = input_113_pad_0, pad_type = input_113_pad_type_0, strides = input_113_strides_0, weight = body_56_weight_to_fp16, x = input_111_cast_fp16)[name = tensor<string, []>("input_113_cast_fp16")];
            tensor<fp32, [64]> input_115_alpha_0 = const()[name = tensor<string, []>("input_115_alpha_0"), val = tensor<fp32, [64]>(BLOBFILE(path = tensor<string, []>("@model_path/weights/weight.bin"), offset = tensor<uint64, []>(2084288)))];
            tensor<fp16, [1, 64, 256, 256]> input_115_cast_fp16 = prelu(alpha = input_115_alpha_0, x = input_113_cast_fp16)[name = tensor<string, []>("input_115_cast_fp16")];
            tensor<string, []> input_117_pad_type_0 = const()[name = tensor<string, []>("input_117_pad_type_0"), val = tensor<string, []>("custom")];
            tensor<int32, [4]> input_117_pad_0 = const()[name = tensor<string, []>("input_117_pad_0"), val = tensor<int32, [4]>([1, 1, 1, 1])];
            tensor<int32, [2]> input_117_strides_0 = const()[name = tensor<string, []>("input_117_strides_0"), val = tensor<int32, [2]>([1, 1])];
            tensor<int32, [2]> input_117_dilations_0 = const()[name = tensor<string, []>("input_117_dilations_0"), val = tensor<int32, [2]>([1, 1])];
            tensor<int32, []> input_117_groups_0 = const()[name = tensor<string, []>("input_117_groups_0"), val = tensor<int32, []>(1)];
            tensor<fp16, [64, 64, 3, 3]> body_58_weight_to_fp16 = const()[name = tensor<string, []>("body_58_weight_to_fp16"), val = tensor<fp16, [64, 64, 3, 3]>(BLOBFILE(path = tensor<string, []>("@model_path/weights/weight.bin"), offset = tensor<uint64, []>(2084608)))];
            tensor<fp16, [64]> body_58_bias_to_fp16 = const()[name = tensor<string, []>("body_58_bias_to_fp16"), val = tensor<fp16, [64]>(BLOBFILE(path = tensor<string, []>("@model_path/weights/weight.bin"), offset = tensor<uint64, []>(2158400)))];
            tensor<fp16, [1, 64, 256, 256]> input_117_cast_fp16 = conv(bias = body_58_bias_to_fp16, dilations = input_117_dilations_0, groups = input_117_groups_0, pad = input_117_pad_0, pad_type = input_117_pad_type_0, strides = input_117_strides_0, weight = body_58_weight_to_fp16, x = input_115_cast_fp16)[name = tensor<string, []>("input_117_cast_fp16")];
            tensor<fp32, [64]> input_119_alpha_0 = const()[name = tensor<string, []>("input_119_alpha_0"), val = tensor<fp32, [64]>(BLOBFILE(path = tensor<string, []>("@model_path/weights/weight.bin"), offset = tensor<uint64, []>(2158592)))];
            tensor<fp16, [1, 64, 256, 256]> input_119_cast_fp16 = prelu(alpha = input_119_alpha_0, x = input_117_cast_fp16)[name = tensor<string, []>("input_119_cast_fp16")];
            tensor<string, []> input_121_pad_type_0 = const()[name = tensor<string, []>("input_121_pad_type_0"), val = tensor<string, []>("custom")];
            tensor<int32, [4]> input_121_pad_0 = const()[name = tensor<string, []>("input_121_pad_0"), val = tensor<int32, [4]>([1, 1, 1, 1])];
            tensor<int32, [2]> input_121_strides_0 = const()[name = tensor<string, []>("input_121_strides_0"), val = tensor<int32, [2]>([1, 1])];
            tensor<int32, [2]> input_121_dilations_0 = const()[name = tensor<string, []>("input_121_dilations_0"), val = tensor<int32, [2]>([1, 1])];
            tensor<int32, []> input_121_groups_0 = const()[name = tensor<string, []>("input_121_groups_0"), val = tensor<int32, []>(1)];
            tensor<fp16, [64, 64, 3, 3]> body_60_weight_to_fp16 = const()[name = tensor<string, []>("body_60_weight_to_fp16"), val = tensor<fp16, [64, 64, 3, 3]>(BLOBFILE(path = tensor<string, []>("@model_path/weights/weight.bin"), offset = tensor<uint64, []>(2158912)))];
            tensor<fp16, [64]> body_60_bias_to_fp16 = const()[name = tensor<string, []>("body_60_bias_to_fp16"), val = tensor<fp16, [64]>(BLOBFILE(path = tensor<string, []>("@model_path/weights/weight.bin"), offset = tensor<uint64, []>(2232704)))];
            tensor<fp16, [1, 64, 256, 256]> input_121_cast_fp16 = conv(bias = body_60_bias_to_fp16, dilations = input_121_dilations_0, groups = input_121_groups_0, pad = input_121_pad_0, pad_type = input_121_pad_type_0, strides = input_121_strides_0, weight = body_60_weight_to_fp16, x = input_119_cast_fp16)[name = tensor<string, []>("input_121_cast_fp16")];
            tensor<fp32, [64]> input_123_alpha_0 = const()[name = tensor<string, []>("input_123_alpha_0"), val = tensor<fp32, [64]>(BLOBFILE(path = tensor<string, []>("@model_path/weights/weight.bin"), offset = tensor<uint64, []>(2232896)))];
            tensor<fp16, [1, 64, 256, 256]> input_123_cast_fp16 = prelu(alpha = input_123_alpha_0, x = input_121_cast_fp16)[name = tensor<string, []>("input_123_cast_fp16")];
            tensor<string, []> input_125_pad_type_0 = const()[name = tensor<string, []>("input_125_pad_type_0"), val = tensor<string, []>("custom")];
            tensor<int32, [4]> input_125_pad_0 = const()[name = tensor<string, []>("input_125_pad_0"), val = tensor<int32, [4]>([1, 1, 1, 1])];
            tensor<int32, [2]> input_125_strides_0 = const()[name = tensor<string, []>("input_125_strides_0"), val = tensor<int32, [2]>([1, 1])];
            tensor<int32, [2]> input_125_dilations_0 = const()[name = tensor<string, []>("input_125_dilations_0"), val = tensor<int32, [2]>([1, 1])];
            tensor<int32, []> input_125_groups_0 = const()[name = tensor<string, []>("input_125_groups_0"), val = tensor<int32, []>(1)];
            tensor<fp16, [64, 64, 3, 3]> body_62_weight_to_fp16 = const()[name = tensor<string, []>("body_62_weight_to_fp16"), val = tensor<fp16, [64, 64, 3, 3]>(BLOBFILE(path = tensor<string, []>("@model_path/weights/weight.bin"), offset = tensor<uint64, []>(2233216)))];
            tensor<fp16, [64]> body_62_bias_to_fp16 = const()[name = tensor<string, []>("body_62_bias_to_fp16"), val = tensor<fp16, [64]>(BLOBFILE(path = tensor<string, []>("@model_path/weights/weight.bin"), offset = tensor<uint64, []>(2307008)))];
            tensor<fp16, [1, 64, 256, 256]> input_125_cast_fp16 = conv(bias = body_62_bias_to_fp16, dilations = input_125_dilations_0, groups = input_125_groups_0, pad = input_125_pad_0, pad_type = input_125_pad_type_0, strides = input_125_strides_0, weight = body_62_weight_to_fp16, x = input_123_cast_fp16)[name = tensor<string, []>("input_125_cast_fp16")];
            tensor<fp32, [64]> input_127_alpha_0 = const()[name = tensor<string, []>("input_127_alpha_0"), val = tensor<fp32, [64]>(BLOBFILE(path = tensor<string, []>("@model_path/weights/weight.bin"), offset = tensor<uint64, []>(2307200)))];
            tensor<fp16, [1, 64, 256, 256]> input_127_cast_fp16 = prelu(alpha = input_127_alpha_0, x = input_125_cast_fp16)[name = tensor<string, []>("input_127_cast_fp16")];
            tensor<string, []> input_129_pad_type_0 = const()[name = tensor<string, []>("input_129_pad_type_0"), val = tensor<string, []>("custom")];
            tensor<int32, [4]> input_129_pad_0 = const()[name = tensor<string, []>("input_129_pad_0"), val = tensor<int32, [4]>([1, 1, 1, 1])];
            tensor<int32, [2]> input_129_strides_0 = const()[name = tensor<string, []>("input_129_strides_0"), val = tensor<int32, [2]>([1, 1])];
            tensor<int32, [2]> input_129_dilations_0 = const()[name = tensor<string, []>("input_129_dilations_0"), val = tensor<int32, [2]>([1, 1])];
            tensor<int32, []> input_129_groups_0 = const()[name = tensor<string, []>("input_129_groups_0"), val = tensor<int32, []>(1)];
            tensor<fp16, [64, 64, 3, 3]> body_64_weight_to_fp16 = const()[name = tensor<string, []>("body_64_weight_to_fp16"), val = tensor<fp16, [64, 64, 3, 3]>(BLOBFILE(path = tensor<string, []>("@model_path/weights/weight.bin"), offset = tensor<uint64, []>(2307520)))];
            tensor<fp16, [64]> body_64_bias_to_fp16 = const()[name = tensor<string, []>("body_64_bias_to_fp16"), val = tensor<fp16, [64]>(BLOBFILE(path = tensor<string, []>("@model_path/weights/weight.bin"), offset = tensor<uint64, []>(2381312)))];
            tensor<fp16, [1, 64, 256, 256]> input_129_cast_fp16 = conv(bias = body_64_bias_to_fp16, dilations = input_129_dilations_0, groups = input_129_groups_0, pad = input_129_pad_0, pad_type = input_129_pad_type_0, strides = input_129_strides_0, weight = body_64_weight_to_fp16, x = input_127_cast_fp16)[name = tensor<string, []>("input_129_cast_fp16")];
            tensor<fp32, [64]> input_131_alpha_0 = const()[name = tensor<string, []>("input_131_alpha_0"), val = tensor<fp32, [64]>(BLOBFILE(path = tensor<string, []>("@model_path/weights/weight.bin"), offset = tensor<uint64, []>(2381504)))];
            tensor<fp16, [1, 64, 256, 256]> input_131_cast_fp16 = prelu(alpha = input_131_alpha_0, x = input_129_cast_fp16)[name = tensor<string, []>("input_131_cast_fp16")];
            tensor<string, []> input_pad_type_0 = const()[name = tensor<string, []>("input_pad_type_0"), val = tensor<string, []>("custom")];
            tensor<int32, [4]> input_pad_0 = const()[name = tensor<string, []>("input_pad_0"), val = tensor<int32, [4]>([1, 1, 1, 1])];
            tensor<int32, [2]> input_strides_0 = const()[name = tensor<string, []>("input_strides_0"), val = tensor<int32, [2]>([1, 1])];
            tensor<int32, [2]> input_dilations_0 = const()[name = tensor<string, []>("input_dilations_0"), val = tensor<int32, [2]>([1, 1])];
            tensor<int32, []> input_groups_0 = const()[name = tensor<string, []>("input_groups_0"), val = tensor<int32, []>(1)];
            tensor<fp16, [48, 64, 3, 3]> body_66_weight_to_fp16 = const()[name = tensor<string, []>("body_66_weight_to_fp16"), val = tensor<fp16, [48, 64, 3, 3]>(BLOBFILE(path = tensor<string, []>("@model_path/weights/weight.bin"), offset = tensor<uint64, []>(2381824)))];
            tensor<fp16, [48]> body_66_bias_to_fp16 = const()[name = tensor<string, []>("body_66_bias_to_fp16"), val = tensor<fp16, [48]>(BLOBFILE(path = tensor<string, []>("@model_path/weights/weight.bin"), offset = tensor<uint64, []>(2437184)))];
            tensor<fp16, [1, 48, 256, 256]> input_cast_fp16 = conv(bias = body_66_bias_to_fp16, dilations = input_dilations_0, groups = input_groups_0, pad = input_pad_0, pad_type = input_pad_type_0, strides = input_strides_0, weight = body_66_weight_to_fp16, x = input_131_cast_fp16)[name = tensor<string, []>("input_cast_fp16")];
            tensor<int32, []> var_576 = const()[name = tensor<string, []>("op_576"), val = tensor<int32, []>(4)];
            tensor<fp16, [1, 3, 1024, 1024]> out_cast_fp16 = pixel_shuffle(upscale_factor = var_576, x = input_cast_fp16)[name = tensor<string, []>("out_cast_fp16")];
            tensor<fp32, []> base_scale_factor_height_0 = const()[name = tensor<string, []>("base_scale_factor_height_0"), val = tensor<fp32, []>(0x1p+2)];
            tensor<fp32, []> base_scale_factor_width_0 = const()[name = tensor<string, []>("base_scale_factor_width_0"), val = tensor<fp32, []>(0x1p+2)];
            tensor<fp16, [1, 3, 1024, 1024]> base_cast_fp16 = upsample_nearest_neighbor(scale_factor_height = base_scale_factor_height_0, scale_factor_width = base_scale_factor_width_0, x = image_to_fp16)[name = tensor<string, []>("base_cast_fp16")];
            tensor<fp16, [1, 3, 1024, 1024]> output = add(x = out_cast_fp16, y = base_cast_fp16)[name = tensor<string, []>("op_584_cast_fp16")];
        } -> (output);
}